PhotoZPE/static/spectra/all_models.npy (npy, 14864 bytes, 1 tensors)

array f8 [132, 14]
0	0x0000000000000000	0.0
1	0x40abd393d4f758a4	3561.7887341781334
2	0x40b26edf4b88c34f	4718.872246310885
3	0x40b82931c93e3f52	6185.194476976832
4	0x40bd4bb444ce29df	7499.704174885962
5	0x40c180be81d0e5c5	8961.488336670105
6	0x40c3b5e4d1281e60	10091.787632956344
7	0x40b121eca5d3679a	4385.924405300897
8	0x40b5728e219c6e08	5490.555200363982
9	0x40b963ea2f259a6a	6499.91478190441
10	0x40becc1b16900d97	7884.105813029592
11	0x40c83d435df458b0	12410.52630476313
12	0x40d0206a8b627248	16513.664757358172
13	0x40d5261487bdbaee	21656.320784981297
14	0x3ff0000000000000	1.0
15	0xbfe9f6e3c621b670	-0.8113879079589434
16	0xbfd5a5411d506440	-0.3382113252897092
17	0x3fd02357ca878b80	0.25215716150540146
18	0x3fe421519c7fff40	0.629067235626259
19	0x3fef14ed3353f100	0.9713045122621509
20	0x3ff2ecc26b0f91f0	1.182802599150019
21	0xbfd8ab28ae23f940	-0.38544671064291336
22	0xbf721a585836d800	-0.0044196558914588735
23	0x3fc233afef529640	0.14220236955331877
24	0x3fd4d7893bfb79c0	0.32565527780198167
25	0x3fe7f325d5be5380	0.7484311270405755
26	0x3ff001def8bc2940	1.000456782933341
27	0x3ff191972b228260	1.0980445561364363
28	0x4024000000000000	10.0
29	0x3fefa72b48325e00	0.989156380662223
30	0xbfb52e08140f0a00	-0.08273363580432402
31	0x3fbf1a2d3090b000	0.1214931720321033
32	0x3fd28f400571c200	0.2899932912032739
33	0x3fdbb7b641b98940	0.43308788698609035
34	0x3fe0892a2460ee60	0.5167437277336369
35	0x3f9d76940894dc00	0.02877265264870843
36	0xbf5d7eb6e08ce000	-0.0018002305898345838
37	0xbf9dc1235591c400	-0.029057075593701853
38	0xbfb3e6dc73059d00	-0.07774141128685486
39	0x3fa1ac83df455600	0.03451931095575489
40	0x3fc43e0f90574880	0.15814394519708586
41	0x3fc1b2bb81ae9e80	0.13826698143133243
42	0x4059000000000000	100.0
43	0x400acb0a7c8fbdfc	3.3491410952917686
44	0x3fe726edb55be0c0	0.7235020200887661
45	0xbfd9d1ca970fd820	-0.4034296488965783
46	0xc0004924e32a8470	-2.035714888319994
47	0xc007c51779c895e0	-2.971236182626612
48	0xc00b38a5d3ebf9c0	-3.4026600414647135
49	0x3ff4fbabaa71dd40	1.3114430101393992
50	0x3f8479f9f85e0c00	0.009998276607580792
51	0xbff1f9e6417f14a0	-1.1235106047109085
52	0xc0064d99e29388a0	-2.7878911687158308
53	0xc012aa59aced3004	-4.666357709862499
54	0xc0167ad7fee8afd4	-5.619964583351209
55	0xc01776c60f9fd5ac	-5.865989917879613
56	0x4059400000000000	101.0
57	0x40086c64bdaf1b8c	3.052926523119316
58	0x3fe5d3b8a705aa20	0.6820948850775643
59	0xbfdb8c6894ca5020	-0.43044485597897797
60	0xc00358984431ae50	-2.418259175077573
61	0xc00cda3e0389aa20	-3.606563594473542
62	0xc010c8ddc2fffb3c	-4.196158453821052
63	0x3ff3f77de4ca8798	1.2479227959779333
64	0x3f85b09f232c3c00	0.010590785275352843
65	0xbff5680afc074fd0	-1.3379011006227195
66	0xc009e92558f746d8	-3.2388407659972067
67	0xc0163e4c045ae5c0	-5.560836856887761
68	0xc01a50d42c478950	-6.57893437563537
69	0xc01b48e2bb95cd10	-6.821177416818742
70	0x4059800000000000	102.0
71	0x4003215bbb61c7c0	2.391288246079938
72	0x3fe436421cc31df0	0.6316233217011682
73	0xbfe110b3fa76f860	-0.5332889453782279
74	0xc0072708824fc760	-2.894059198436409
75	0xc011ed2ab9c3fa64	-4.481608297907403
76	0xc01501b4bc401d88	-5.251666013158122
77	0x3ff1b918cdddf490	1.10768967072298
78	0x3f8b55513a541000	0.01334632357839638
79	0xbffaa572537a8ab0	-1.6653922329793822
80	0xc00e94547028ff38	-3.8224266779433513
81	0xc01b1a2ae3205c50	-6.775554226732382
82	0xc01f4d033104e0ac	-7.8252074870326105
83	0xc0202512fe602a48	-8.072410535086547
84	0x4059c00000000000	103.0
85	0x3fff82c895692e08	1.9694295727121034
86	0x3fe6583190385eb0	0.6982658211517982
87	0xbfe4cf9368ff8920	-0.6503388453241179
88	0xc008c21810804268	-3.094772461809317
89	0xc01489e7958d4d00	-5.134672486066165
90	0xc018e22c0a6ae770	-6.220871126913934
91	0x3ff2e37b8f047af0	1.1805377565976265
92	0x3f92322d7538a400	0.017769537238709887
93	0xbffdb2d791d0afc0	-1.8561626144319092
94	0xc0107b3f76f5a984	-4.120359286064176
95	0xc0201d978be3cba0	-8.057796832615907
96	0xc0222fdb82e5790c	-9.093471613418409
97	0xc022bfeddafc4efe	-9.37486156778277
98	0x405a000000000000	104.0
99	0x3ffdad9cfc22d680	1.8548860405984726
100	0x3fe555dcdc054ee0	0.6667312905578591
101	0xbfe01f32ca393af0	-0.503808398216135
102	0xc006ecbcfec29c38	-2.8655948546543435
103	0xc01399a9bb7ceb14	-4.900061540126234
104	0xc01813d0d9a60350	-6.019351387746454
105	0x3ff2fbf39f95f578	1.1865116342372328
106	0x3f8d81ad14e98400	0.014407493782700342
107	0xbffb1ab820ae9f70	-1.6940232540746045
108	0xc00f0f67ec601000	-3.8825224367919873
109	0xc02023000cc07712	-8.068359755033757
110	0xc022048265ebf24c	-9.008807358791408
111	0xc022ac7ac4c78648	-9.336874150615714
112	0x405a400000000000	105.0
113	0x3ff9bfbdaf57d990	1.6093117570249866
114	0x3fe17f97798a00e0	0.5468251584825587
115	0xbfd6a46e1f333de0	-0.3537860207261172
116	0xc0075a95529e5380	-2.919230123001796
117	0xc014a24fcfb1afb8	-5.158507580967061
118	0xc0194684450da1fc	-6.3188639440127155
119	0x3ff0a454b1b83408	1.040119833199471
120	0x3f86ae9755e99400	0.011075193700159858
121	0xbffb255028e3fab0	-1.6966096493994591
122	0xc010033d1c78aba0	-4.003162808289659
123	0xc020bd3bd29f60da	-8.369597036319124
124	0xc02258a83dc94572	-9.173158579653975
125	0xc0232e920608f1d4	-9.59095782145679
126	0x405a800000000000	106.0
127	0xbfd72c8eaa8ad7e0	-0.36209456114317895
128	0xbfcad0e205031600	-0.2094995998833582
129	0x3fcbda0ea680e200	0.21759207849551387
130	0x3fe09bca41093740	0.5190173406824456
131	0x3fe91151bbad4850	0.7833641686977533
132	0x3fef50a63d17b080	0.9785948937619793
133	0xbfc60d56817934c0	-0.17228204080530496
134	0xbf6fda604ddb7000	-0.0038883095684081326
135	0x3fb813a39d59ec00	0.09404966918548041
136	0x3fc7c27b6a92a280	0.18562262252568829
137	0x3fd8d642f4652a80	0.38807748667446873
138	0x3fdb618c4f40f7a0	0.4278288625681572
139	0x3fdb5c962e865c80	0.42752604049150733
140	0x405ac00000000000	107.0
141	0xbf8d680f4a5e5c00	-0.014358634430932327
142	0xbfc5c846efeb6840	-0.17017447199651947
143	0x3fc507aa92ed4dc0	0.16429645704429952
144	0x3fdca2a57eed55c0	0.4474271525881157
145	0x3fe67ec2b60374d0	0.7029737048102565
146	0x3feba0c2826991e0	0.8633739993206824
147	0xbfc01095cb836d80	-0.12550613820245005
148	0xbf66528e7ae3b000	-0.002724912911721944
149	0x3fa258baa56f7300	0.03583319920992345
150	0x3fbdf49d671ad880	0.11701377646645206
151	0x3fc4e8137d576800	0.16333240146815342
152	0x3fc40caf3f11e280	0.1566371019323647
153	0x3fc446e31a5d5980	0.15841330325447345
154	0x405b000000000000	108.0
155	0x3ff513132444c0e0	1.3171569267979564
156	0xbf56181928f0a000	-0.001348518915401442
157	0x3facf66f8ed00a00	0.056567655738053446
158	0x3fc3436b4a39d7c0	0.1504949676925076
159	0x3fcfe40d66530000	0.24914710518169159
160	0x3fd02b5142720fc0	0.25264388550590056
161	0x3fc312a95732ba80	0.1490070033809907
162	0xbf4c68524fc14000	-0.0008669282829121272
163	0xbfbbee5ff6887700	-0.10910606163858105
164	0xbfcd62c459e7d240	-0.229576629542537
165	0xbfdb737846b2ab20	-0.42892271904081447
166	0xbfe2aa5e4b7ef8b0	-0.5832969164400961
167	0xbfe446a144084980	-0.6336218193776375
168	0x405b400000000000	109.0
169	0x3ff73f82bf604880	1.4530055499676848
170	0x3fc003e630066600	0.12511899323435216
171	0xbf93814dc03eac00	-0.01904794202679838
172	0x3f958df9880ad200	0.02104940312229253
173	0x3fade04439652300	0.05835164261458736
174	0x3fad3d87eefc4e00	0.05711006920151007
175	0x3fd5c68948942c40	0.340242691877112
176	0x3f5033b967b02000	0.0009888945194251875
177	0xbfc9430107d27d00	-0.19735730058616952
178	0xbfd85a7dfe557140	-0.3805232032516592
179	0xbfdfcea25c3e5ae0	-0.4969869519058374
180	0xbfe62648535df2e0	-0.692173159433505
181	0xbfe86e57f93bdd80	-0.7634696834419827
182	0x4026000000000000	11.0
183	0x3ff07d8dab9bda10	1.0306526854961966
184	0xbfa2e6d5e211d500	-0.03691738495482788
185	0x3fb8d4943bbbfa00	0.09699369867664842
186	0x3fcf61a6160e0dc0	0.2451675040903023
187	0x3fd908f845b9a820	0.3911724739942901
188	0x3fde8835e7b46c00	0.4770636332265781
189	0x3fb7057c1299fe00	0.08992743925227131
190	0xbf54da6d3cc50000	-0.0012727801104830405
191	0xbfae087a9584da00	-0.05865843844587815
192	0xbfc08df89dfcfa80	-0.12933261598842094
193	0xbf928f74ea2c2600	-0.018125368874313708
194	0x3fc1e93c107b4580	0.13993025593530817
195	0x3fc0b8f9e3bb91c0	0.130645023534397
196	0x405b800000000000	110.0
197	0x400201f12fada718	2.250948307501755
198	0x3fde3c9ad1dd4500	0.4724490212875736
199	0xbfcc7d491a080d00	-0.22257341166559996
200	0xbfda519e81e48f40	-0.41123163876385505
201	0xbfde74a4e06ccd40	-0.47586938778404786
202	0xbfe11f69feee5840	-0.5350847224351654
203	0x3fed5fda32b46a40	0.9179507246329379
204	0x3f7618b2381fd800	0.005394645851984237
205	0xbfdd06f71befbd20	-0.45355012634441216
206	0xbfeb7a7273e62ce0	-0.858697153439973
207	0xbff4ce22147c7dc0	-1.3003254699941493
208	0xbffb25ef40124488	-1.6967613699710302
209	0xbffcee09484da0e0	-1.8081143211693913
210	0x405bc00000000000	111.0
211	0x400b133c4a8f0754	3.384392340173614
212	0x3fe602050d56bad0	0.6877465496562198
213	0xbfd5870ef98bd740	-0.33636831636191644
214	0xbfe4305d7732e750	-0.6309039428808578
215	0xbfe97a52b1768ae0	-0.7961820093226741
216	0xbfed6def920dfa00	-0.9196699001911952
217	0x3ff499cc917b2f88	1.2875486071452276
218	0x3f80e35a69af7c00	0.008246141767754622
219	0xbfe30fcf38379c80	-0.5956798646920021
220	0xbff18ac5f5d09ac8	-1.0963801958220518
221	0xbffb3f02aa23f1e8	-1.7028834005460514
222	0xc000aa1168692360	-2.0830410153470638
223	0xc001b40e0c63fafc	-2.2129174201976394
224	0x405c000000000000	112.0
225	0x40103f08a9fae888	4.0615564879791535
226	0x3fe95b6fbb92a340	0.7924116767436331
227	0xbfda34280b56b400	-0.4094333754281365
228	0xbfea7ed3fcc778f0	-0.8279819428533113
229	0xbff167a3a0ec8c58	-1.0878025327772516
230	0xbff42f9e6a7d4660	-1.2616256866207536
231	0x3ff72e638e08d2b8	1.44882541162694
232	0x3f850133dd4cd800	0.01025620001892591
233	0xbfe671f16da5f1d0	-0.701409067303354
234	0xbff531ef95bc90c0	-1.3246913765988637
235	0xc002def9eeef3000	-2.358875147509025
236	0xc0083df6f18116b8	-3.0302561633605727
237	0xc009494e2a5e0afc	-3.1607936201047533
238	0x405c400000000000	113.0
239	0x4011db47fa532860	4.464141761136574
240	0x3fee47362f604b50	0.9461928296389974
241	0xbfe10e018af39060	-0.5329597200293499
242	0xbffa2ad1f736e698	-1.6354541451277438
243	0xc001f313625966c0	-2.243689316132844
244	0xc00412e80c41fd88	-2.509231658710352
245	0x3ffacf3e41f8f100	1.6755964829490608
246	0x3f8c9a150dbb4000	0.013965763551283317
247	0xbff08e41e9ec5130	-1.034730829012073
248	0xc0025d90a69cff10	-2.295686055818699
249	0xc00e3327d9cb4c80	-3.774978353039444
250	0xc012c3d0e0d2b07c	-4.691226494655094
251	0xc0140632861d8344	-5.00605210833675
252	0x405c800000000000	114.0
253	0xbfe167e77064e470	-0.54393360092139
254	0xbfce72b261db80c0	-0.2378752687282084
255	0x3fcdabd1b42f4c00	0.23180600450595534
