all_models_P.npy (npy, 12752 bytes, 1 tensors)

array f8 [132, 12]
0	0x0000000000000000	0.0
1	0x40abd393d4f758a4	3561.7887341781334
2	0x40b26edf4b88c34f	4718.872246310885
3	0x40b82931c93e3f52	6185.194476976832
4	0x40bd4bb444ce29df	7499.704174885962
5	0x40c180be81d0e5c5	8961.488336670105
6	0x40c3b5e4d1281e60	10091.787632956344
7	0x40b121eca5d3679a	4385.924405300897
8	0x40b963ea2f259a6a	6499.91478190441
9	0x40c83d435df458b0	12410.52630476313
10	0x40d0206a8b627248	16513.664757358172
11	0x40d5261487bdbaee	21656.320784981297
12	0x3ff0000000000000	1.0
13	0xbfe9f6e3c621b670	-0.8113879079589434
14	0xbfd5a5411d506440	-0.3382113252897092
15	0x3fd02357ca878b80	0.25215716150540146
16	0x3fe421519c7fff40	0.629067235626259
17	0x3fef14ed3353f100	0.9713045122621509
18	0x3ff2ecc26b0f91f0	1.182802599150019
19	0xbfd8ab28ae23f940	-0.38544671064291336
20	0x3fc233afef529640	0.14220236955331877
21	0x3fe7f325d5be5380	0.7484311270405755
22	0x3ff001def8bc2940	1.000456782933341
23	0x3ff191972b228260	1.0980445561364363
24	0x4024000000000000	10.0
25	0x3fefa72b48325e00	0.989156380662223
26	0xbfb52e08140f0a00	-0.08273363580432402
27	0x3fbf1a2d3090b000	0.1214931720321033
28	0x3fd28f400571c200	0.2899932912032739
29	0x3fdbb7b641b98940	0.43308788698609035
30	0x3fe0892a2460ee60	0.5167437277336369
31	0x3f9d76940894dc00	0.02877265264870843
32	0xbf9dc1235591c400	-0.029057075593701853
33	0x3fa1ac83df455600	0.03451931095575489
34	0x3fc43e0f90574880	0.15814394519708586
35	0x3fc1b2bb81ae9e80	0.13826698143133243
36	0x4059000000000000	100.0
37	0x400acb0a7c8fbdfc	3.3491410952917686
38	0x3fe726edb55be0c0	0.7235020200887661
39	0xbfd9d1ca970fd820	-0.4034296488965783
40	0xc0004924e32a8470	-2.035714888319994
41	0xc007c51779c895e0	-2.971236182626612
42	0xc00b38a5d3ebf9c0	-3.4026600414647135
43	0x3ff4fbabaa71dd40	1.3114430101393992
44	0xbff1f9e6417f14a0	-1.1235106047109085
45	0xc012aa59aced3004	-4.666357709862499
46	0xc0167ad7fee8afd4	-5.619964583351209
47	0xc01776c60f9fd5ac	-5.865989917879613
48	0x4059400000000000	101.0
49	0x40086c64bdaf1b8c	3.052926523119316
50	0x3fe5d3b8a705aa20	0.6820948850775643
51	0xbfdb8c6894ca5020	-0.43044485597897797
52	0xc00358984431ae50	-2.418259175077573
53	0xc00cda3e0389aa20	-3.606563594473542
54	0xc010c8ddc2fffb3c	-4.196158453821052
55	0x3ff3f77de4ca8798	1.2479227959779333
56	0xbff5680afc074fd0	-1.3379011006227195
57	0xc0163e4c045ae5c0	-5.560836856887761
58	0xc01a50d42c478950	-6.57893437563537
59	0xc01b48e2bb95cd10	-6.821177416818742
60	0x4059800000000000	102.0
61	0x4003215bbb61c7c0	2.391288246079938
62	0x3fe436421cc31df0	0.6316233217011682
63	0xbfe110b3fa76f860	-0.5332889453782279
64	0xc0072708824fc760	-2.894059198436409
65	0xc011ed2ab9c3fa64	-4.481608297907403
66	0xc01501b4bc401d88	-5.251666013158122
67	0x3ff1b918cdddf490	1.10768967072298
68	0xbffaa572537a8ab0	-1.6653922329793822
69	0xc01b1a2ae3205c50	-6.775554226732382
70	0xc01f4d033104e0ac	-7.8252074870326105
71	0xc0202512fe602a48	-8.072410535086547
72	0x4059c00000000000	103.0
73	0x3fff82c895692e08	1.9694295727121034
74	0x3fe6583190385eb0	0.6982658211517982
75	0xbfe4cf9368ff8920	-0.6503388453241179
76	0xc008c21810804268	-3.094772461809317
77	0xc01489e7958d4d00	-5.134672486066165
78	0xc018e22c0a6ae770	-6.220871126913934
79	0x3ff2e37b8f047af0	1.1805377565976265
80	0xbffdb2d791d0afc0	-1.8561626144319092
81	0xc0201d978be3cba0	-8.057796832615907
82	0xc0222fdb82e5790c	-9.093471613418409
83	0xc022bfeddafc4efe	-9.37486156778277
84	0x405a000000000000	104.0
85	0x3ffdad9cfc22d680	1.8548860405984726
86	0x3fe555dcdc054ee0	0.6667312905578591
87	0xbfe01f32ca393af0	-0.503808398216135
88	0xc006ecbcfec29c38	-2.8655948546543435
89	0xc01399a9bb7ceb14	-4.900061540126234
90	0xc01813d0d9a60350	-6.019351387746454
91	0x3ff2fbf39f95f578	1.1865116342372328
92	0xbffb1ab820ae9f70	-1.6940232540746045
93	0xc02023000cc07712	-8.068359755033757
94	0xc022048265ebf24c	-9.008807358791408
95	0xc022ac7ac4c78648	-9.336874150615714
96	0x405a400000000000	105.0
97	0x3ff9bfbdaf57d990	1.6093117570249866
98	0x3fe17f97798a00e0	0.5468251584825587
99	0xbfd6a46e1f333de0	-0.3537860207261172
100	0xc0075a95529e5380	-2.919230123001796
101	0xc014a24fcfb1afb8	-5.158507580967061
102	0xc0194684450da1fc	-6.3188639440127155
103	0x3ff0a454b1b83408	1.040119833199471
104	0xbffb255028e3fab0	-1.6966096493994591
105	0xc020bd3bd29f60da	-8.369597036319124
106	0xc02258a83dc94572	-9.173158579653975
107	0xc0232e920608f1d4	-9.59095782145679
108	0x405a800000000000	106.0
109	0xbfd72c8eaa8ad7e0	-0.36209456114317895
110	0xbfcad0e205031600	-0.2094995998833582
111	0x3fcbda0ea680e200	0.21759207849551387
112	0x3fe09bca41093740	0.5190173406824456
113	0x3fe91151bbad4850	0.7833641686977533
114	0x3fef50a63d17b080	0.9785948937619793
115	0xbfc60d56817934c0	-0.17228204080530496
116	0x3fb813a39d59ec00	0.09404966918548041
117	0x3fd8d642f4652a80	0.38807748667446873
118	0x3fdb618c4f40f7a0	0.4278288625681572
119	0x3fdb5c962e865c80	0.42752604049150733
120	0x405ac00000000000	107.0
121	0xbf8d680f4a5e5c00	-0.014358634430932327
122	0xbfc5c846efeb6840	-0.17017447199651947
123	0x3fc507aa92ed4dc0	0.16429645704429952
124	0x3fdca2a57eed55c0	0.4474271525881157
125	0x3fe67ec2b60374d0	0.7029737048102565
126	0x3feba0c2826991e0	0.8633739993206824
127	0xbfc01095cb836d80	-0.12550613820245005
128	0x3fa258baa56f7300	0.03583319920992345
129	0x3fc4e8137d576800	0.16333240146815342
130	0x3fc40caf3f11e280	0.1566371019323647
131	0x3fc446e31a5d5980	0.15841330325447345
132	0x405b000000000000	108.0
133	0x3ff513132444c0e0	1.3171569267979564
134	0xbf56181928f0a000	-0.001348518915401442
135	0x3facf66f8ed00a00	0.056567655738053446
136	0x3fc3436b4a39d7c0	0.1504949676925076
137	0x3fcfe40d66530000	0.24914710518169159
138	0x3fd02b5142720fc0	0.25264388550590056
139	0x3fc312a95732ba80	0.1490070033809907
140	0xbfbbee5ff6887700	-0.10910606163858105
141	0xbfdb737846b2ab20	-0.42892271904081447
142	0xbfe2aa5e4b7ef8b0	-0.5832969164400961
143	0xbfe446a144084980	-0.6336218193776375
144	0x405b400000000000	109.0
145	0x3ff73f82bf604880	1.4530055499676848
146	0x3fc003e630066600	0.12511899323435216
147	0xbf93814dc03eac00	-0.01904794202679838
148	0x3f958df9880ad200	0.02104940312229253
149	0x3fade04439652300	0.05835164261458736
150	0x3fad3d87eefc4e00	0.05711006920151007
151	0x3fd5c68948942c40	0.340242691877112
152	0xbfc9430107d27d00	-0.19735730058616952
153	0xbfdfcea25c3e5ae0	-0.4969869519058374
154	0xbfe62648535df2e0	-0.692173159433505
155	0xbfe86e57f93bdd80	-0.7634696834419827
156	0x4026000000000000	11.0
157	0x3ff07d8dab9bda10	1.0306526854961966
158	0xbfa2e6d5e211d500	-0.03691738495482788
159	0x3fb8d4943bbbfa00	0.09699369867664842
160	0x3fcf61a6160e0dc0	0.2451675040903023
161	0x3fd908f845b9a820	0.3911724739942901
162	0x3fde8835e7b46c00	0.4770636332265781
163	0x3fb7057c1299fe00	0.08992743925227131
164	0xbfae087a9584da00	-0.05865843844587815
165	0xbf928f74ea2c2600	-0.018125368874313708
166	0x3fc1e93c107b4580	0.13993025593530817
167	0x3fc0b8f9e3bb91c0	0.130645023534397
168	0x405b800000000000	110.0
169	0x400201f12fada718	2.250948307501755
170	0x3fde3c9ad1dd4500	0.4724490212875736
171	0xbfcc7d491a080d00	-0.22257341166559996
172	0xbfda519e81e48f40	-0.41123163876385505
173	0xbfde74a4e06ccd40	-0.47586938778404786
174	0xbfe11f69feee5840	-0.5350847224351654
175	0x3fed5fda32b46a40	0.9179507246329379
176	0xbfdd06f71befbd20	-0.45355012634441216
177	0xbff4ce22147c7dc0	-1.3003254699941493
178	0xbffb25ef40124488	-1.6967613699710302
179	0xbffcee09484da0e0	-1.8081143211693913
180	0x405bc00000000000	111.0
181	0x400b133c4a8f0754	3.384392340173614
182	0x3fe602050d56bad0	0.6877465496562198
183	0xbfd5870ef98bd740	-0.33636831636191644
184	0xbfe4305d7732e750	-0.6309039428808578
185	0xbfe97a52b1768ae0	-0.7961820093226741
186	0xbfed6def920dfa00	-0.9196699001911952
187	0x3ff499cc917b2f88	1.2875486071452276
188	0xbfe30fcf38379c80	-0.5956798646920021
189	0xbffb3f02aa23f1e8	-1.7028834005460514
190	0xc000aa1168692360	-2.0830410153470638
191	0xc001b40e0c63fafc	-2.2129174201976394
192	0x405c000000000000	112.0
193	0x40103f08a9fae888	4.0615564879791535
194	0x3fe95b6fbb92a340	0.7924116767436331
195	0xbfda34280b56b400	-0.4094333754281365
196	0xbfea7ed3fcc778f0	-0.8279819428533113
197	0xbff167a3a0ec8c58	-1.0878025327772516
198	0xbff42f9e6a7d4660	-1.2616256866207536
199	0x3ff72e638e08d2b8	1.44882541162694
200	0xbfe671f16da5f1d0	-0.701409067303354
201	0xc002def9eeef3000	-2.358875147509025
202	0xc0083df6f18116b8	-3.0302561633605727
203	0xc009494e2a5e0afc	-3.1607936201047533
204	0x405c400000000000	113.0
205	0x4011db47fa532860	4.464141761136574
206	0x3fee47362f604b50	0.9461928296389974
207	0xbfe10e018af39060	-0.5329597200293499
208	0xbffa2ad1f736e698	-1.6354541451277438
209	0xc001f313625966c0	-2.243689316132844
210	0xc00412e80c41fd88	-2.509231658710352
211	0x3ffacf3e41f8f100	1.6755964829490608
212	0xbff08e41e9ec5130	-1.034730829012073
213	0xc00e3327d9cb4c80	-3.774978353039444
214	0xc012c3d0e0d2b07c	-4.691226494655094
215	0xc0140632861d8344	-5.00605210833675
216	0x405c800000000000	114.0
217	0xbfe167e77064e470	-0.54393360092139
218	0xbfce72b261db80c0	-0.2378752687282084
219	0x3fcdabd1b42f4c00	0.23180600450595534
220	0x3fe091b660c8f2a0	0.5177871599513146
221	0x3fea4de7370d5760	0.8220096659885989
222	0x3ff1854967f33c90	1.0950407085945564
223	0xbfcc8406b6085d00	-0.22277912033380431
224	0x3fbb5e4038864d00	0.10690690402980252
225	0x3fe248fbe981b300	0.5714091835667148
226	0x3fe3eca765a93810	0.6226384149138102
227	0x3fe716d29c5402c0	0.7215359738621245
228	0x405cc00000000000	115.0
229	0xbfdaf30b40dabf00	-0.42108422597355855
230	0xbfca8155fe833f40	-0.20707201888444082
231	0x3fc72d1deb8f0f80	0.1810643577756501
232	0x3fdc3dee91e0f9c0	0.4412800240133059
233	0x3fe8e3c6a247da50	0.7778046769661362
234	0x3fef44dae2177980	0.9771551528790923
235	0xbfc6bfa10a412dc0	-0.17772305489266493
236	0x3fa8fa9243778c00	0.04878670762607129
237	0x3fdeb89c093c9c40	0.4800176706507422
238	0x3fe326eb3dc052e0	0.5985008436278711
239	0x3fe52151a9c86da0	0.6603172603676519
240	0x405d000000000000	116.0
241	0xbfc5f33da6ef4500	-0.17148562098604003
242	0xbfc66eca1fcbed40	-0.17525602867667978
243	0x3fc446b226af9900	0.15840746773682923
244	0x3fdb6d7f21df3a40	0.4285581427365379
245	0x3fe65253821a93e0	0.697549585446378
246	0x3fec097d67073ca0	0.8761584293623805
247	0xbfc3ada06199d300	-0.15373615995090262
248	0x3f9d76eaa259c400	0.02877394309911452
249	0x3fd3aab1938f4460	0.3072933140766221
250	0x3fd53c0a63db0940	0.3317895865585747
251	0x3fd32accbc5f4fc0	0.29948728938802205
252	0x405d400000000000	117.0
253	0xbfa0fe5696545600	-0.03319044671131266
254	0xbfc078bbb896cb40	-0.12868448746811545
255	0x3fc309a576c31c00	0.14873188303883467
